best_siamese_v3_boat.pt (torch, 577201 bytes, 87 tensors)

node_lin.weight f4 [64, 5]
00000000: 69bf 743e f6bc 7f3e 2876 57be fb21 093e
00000010: e1a5 65bd ecf5 863c 67e8 b63c 3778 c93d
00000020: 27c0 f83d 7d98 0d3e bc9f 4e3e 8ad7 23be
00000030: 867b f93d 88b2 d9bd 24d6 e7bd ce67 203d
00000040: 2bc1 1f3e 6004 373e 2a60 f0bd 760f 663e
00000050: 66e9 abbb 8730 bbbd 5401 ea3d 2fea ae3d
00000060: b224 87be 3505 b0bd 64c9 123e d3a8 15be
00000070: 9a11 8fbc 340a 5f3e 47db eb3b e6da 0f3e
00000080: d3c4 bd3d 2465 1dbe 5629 edbd ad79 10be
00000090: a2d8 6e3d b736 94bd 2f0c 4fbe 2c0d 783e
000000a0: 5f08 dd3d c4c9 87bd 285b 253e 221e 1abe
000000b0: 7bb4 f03c db6e a6bd 3be6 10be f63a 643e
000000c0: d00e 583e 0128 0d3e 820f 8bbd a3c2 a0bd
000000d0: 2d3b a93d 0508 583e 9030 e0bd 9fa9 793e
000000e0: aa89 163e 67e9 45be fd1b 813e 0e55 15be
000000f0: e053 503d 78b5 113d 5ba8 ad3d 8898 13be
00000100: f838 7b3e 2b57 0dbe 5031 90bd deff 7f3e
00000110: 6860 863e c8ee ac3d d9d5 98bd c71b 6e3e
00000120: 23aa 5a3e 3b1e a9bd e801 72be 075b d03c
00000130: 46ad 5dbe 3256 e2bd e1fc bf3d 3c4d 9f3d
00000140: ce8e 003e 23b2 aa3d a846 73be e2e1 acbd
00000150: 5e90 81bd e784 0b3e b5ca 1bbe c68b b83d
00000160: c6cd 623e 5ae5 68be 5086 383c 9f81 8bbd
00000170: b8b2 66be 48e2 6e3e 5bdb 86bc b74c 133d
00000180: 592a 96bd ea45 53bd d5e0 303e e95a 683e
00000190: 3ecd 12be 726d 5a3e c85e a03d 3ff6 433e
000001a0: 9583 bbbd d1e9 56be 16d0 183e 48e1 78be
000001b0: a047 933c 24f4 113c 26aa 413e 0ca1 2abe
000001c0: b7aa 093e 88cb aabd 22b1 0d3e ca66 803d
000001d0: 50c7 cdbd c5a8 1c3d 3942 833e 8f25 b53d
000001e0: c06d 4abe 2ada 61be da10 04be b8ba 93bd
000001f0: e4b9 5abe e9d1 3e3e d121 b6bd b9a6 3abe
00000200: 7ab3 82bd 8335 eebd 09e8 cebd 4dcd 65bd
00000210: 1618 9abd da12 023e 6c15 d83d af26 a4bc
00000220: 1d5d 0ebd e34e d13d 1e4c 723e 40a2 6cbd
00000230: 88cd 82bd c499 afbd f77d 293e 2cd1 05be
00000240: d998 eabd dafc 233a 49df 89be eab7 e0bc
00000250: ac59 493e 3251 0a3e db32 3f3e af0f 3cbe
00000260: a9cd d2bd 0e2d 76be ad52 08be 2237 debd
00000270: d86e 313e 8151 6f3e 4a17 383e 0320 253d
00000280: 0a1b 3a3c d539 293e 0882 e93d 76d0 60bc
00000290: fd26 9fbd 2d57 aabd 90de 3a3e a365 bcbc
000002a0: 85b7 4dbe 61b0 3e3e a261 ac3a 31b7 25be
000002b0: 6a8c 623d ce94 b53d ade6 2dbe 27d7 163e
000002c0: ce1c 333e 9aa1 8bbd f00a 533e 07ac 56bc
000002d0: c466 863d 5c74 7c3e 8963 1dbd 68c6 693e
000002e0: a906 6f3d 65eb 353e 0507 52be 08d6 5fbe
000002f0: e679 533e 9320 213e dbd7 a0bd 433b 363e
00000300: 81ea 30be 4923 723d 595c 43be ec1a 643e
00000310: 3bff 6cbe 668a 863e 2111 fa3d 1b54 c0bd
00000320: 97bc b1bd 302b 833e 65a9 803e eb1c ea3d
00000330: 7e33 76bd 7f81 7d3e e174 653c 0bb3 3cbe
00000340: 261b edbd 0ad5 bfbd 98b8 80be d9fd 46bb
00000350: 8589 453e 7361 92bd 3184 16be 2b11 4b3e
00000360: cd96 e53d 7dca 0a3e 3fae 1c3d 37d6 883e
00000370: 0e20 18be edd2 6dbe 47b4 94bd a1e2 29be
00000380: e6a4 af3d a60f 0fbe f4bf 50be 9728 cc3c
00000390: 0dda c93d 0f3f 723b 2706 6f3d 0717 9cbd
000003a0: 68e9 40be 327a 76be d1ed da3d 91f2 bbbb
000003b0: ccee 5e3e 72b8 44bd 89ec 7ebd 0a4e cc3b
000003c0: 49b0 e5bd ac5a 63bd e1c3 1cbe c9f4 6cbd
000003d0: 9551 2abe 9ea5 823e 3743 7cbe fb50 4fbe
000003e0: ddf7 e6bd b22c 24be 026e ca3c 33fc a53c
000003f0: eda2 533e dc00 83bd 878c b83d 3352 433e
0.23901142 0.24974427 -0.21041167 0.13391869 -0.056066398 0.016474687 0.022327615 0.09837382
0.12146025 0.13827701 0.20178121 -0.1600019 0.12181763 -0.10629755 -0.11320141 0.039161496
0.15601031 0.17872763 -0.11737092 0.22466835 -0.005246329 -0.09140115 0.114260346 0.08540761
-0.26395184 -0.08594743 0.14334637 -0.14615183 -0.017464448 0.21781236 0.0071977708 0.14048347
0.09266057 -0.15370613 -0.1158015 -0.14108916 0.058312066 -0.072369985 -0.20219491 0.24223775
0.10792612 -0.066302806 0.16148055 -0.15050557 0.029382935 -0.08126613 -0.14150326 0.22288117
0.210994 0.13784792 -0.06790067 -0.07849624 0.0826324 0.21096809 -0.109467626 0.24381112
0.14700952 -0.19327317 0.25216666 -0.14583227 0.05086124 0.035573453 0.08479377 -0.14413655
0.2453345 -0.13802783 -0.070406556 0.2499995 0.26245427 0.084439814 -0.07462663 0.23252784
0.21353965 -0.08257719 -0.2363354 0.02543403 -0.2164813 -0.11051597 0.09374405 0.07778403
0.12554476 0.08334758 -0.23757422 -0.08441521 -0.06326364 0.13624917 -0.15214045 0.09011035
0.22148809 -0.2274374 0.011262491 -0.06811833 -0.22529113 0.23328507 -0.016462019 0.035961833
-0.07332296 -0.051580347 0.17273267 0.2269093 -0.14336106 0.21330813 0.07830578 0.19136904
-0.09155957 -0.20987631 0.14923128 -0.24304688 0.01797849 0.008908305 0.18912563 -0.16662997
0.13444029 -0.08339602 0.13837102 0.062696055 -0.100477815 0.03824689 0.2563646 0.08845054
-0.19768429 -0.22055879 -0.12897053 -0.07213348 -0.21359974 0.18634762 -0.08893169 -0.18227662
-0.06381889 -0.116313 -0.10102851 -0.056103993 -0.07524125 0.12702504 0.10550961 -0.020037977
-0.03475677 0.102201246 0.23661849 -0.05777192 -0.06386858 -0.0857425 0.16551958 -0.13068074
-0.114549346 0.00062556344 -0.26928166 -0.027431447 0.19663113 0.13507536 0.18671744 -0.18365358
-0.10293133 -0.24040624 -0.13312788 -0.108503595 0.1732744 0.23370935 0.17977634 0.040313732
0.011358986 0.16525967 0.114017546 -0.013721576 -0.07771108 -0.08317409 0.18248963 -0.022997683
-0.20089538 0.1862197 0.0013151655 -0.16183163 0.05530969 0.08866273 -0.16982527 0.14730512
0.17491457 -0.068179324 0.20609641 -0.013102538 0.0656257 0.24653763 -0.038425002 0.22829592
0.05835596 0.17765577 -0.2051049 -0.2185899 0.2065197 0.15735082 -0.07853671 0.17796044
-0.17276956 0.05911568 -0.19078197 0.22275895 -0.23144238 0.26277465 0.12210298 -0.09391042
-0.08678549 0.25618887 0.25129238 0.11431297 -0.0601077 0.2475643 0.014004917 -0.18427674
-0.11577444 -0.09366806 -0.25140834 -0.0030363707 0.19290741 -0.07147493 -0.14698865 0.19830768
0.112104036 0.13553806 0.03825211 0.26725933 -0.14855978 -0.23224993 -0.07260948 -0.16590358
0.08576374 -0.13970813 -0.20385724 0.024921698 0.09856043 0.0036963855 0.058355477 -0.076215796
-0.18839037 -0.24070051 0.10689891 -0.0057357033 0.21770781 -0.048027463 -0.062237296 0.006234889
-0.11215264 -0.055506393 -0.15309097 -0.057850633 -0.16632684 0.2551698 -0.24635015 -0.20245735
-0.11277745 -0.16032675 0.024710659 0.02026186 0.2066762 -0.06396648 0.090111785 0.19074325

node_lin.bias f4 [64]
00000000: 41ec 25bb f375 c9bc 4478 e5bb cd70 c9bc
00000010: 9ace 003a 4817 21bb 79ce 34bd d567 0cbd
00000020: 5f3c c3bc 4b15 d93a 60fe f4bb 6337 91bc
00000030: 3c78 f5bc af6c 4c3b 8cc4 4ab9 1834 883a
00000040: b544 efbc f354 2fbd 902d bebc 92ce 8bbc
00000050: 17bd aebc b336 3cbc c15b 80ba b419 cfbc
00000060: 2d17 9abc eb25 d5bc 09bd cbbb db43 553c
00000070: 01e8 f8bb 0d00 fcbb a65a 3a3b 57b8 a5bc
00000080: 240c 90bc d8e0 69bc 82fb 84bc 6512 52bc
00000090: ed5d f3bc efce c0ba dfeb 03bd 7cd9 02bc
000000a0: 1a4d da3a e883 ccbb 44f2 b0bc 5762 34bd
000000b0: ac8d c0bc a42c 15bd 4546 103a 4268 b3ba
000000c0: 6865 8bbc 9147 73ba c231 c7bb 86b9 04bd
000000d0: a005 06bc d03e 5ebc 08e2 1f3c 62b3 05bd
000000e0: 0f9f 0abc 6d15 eabc 3038 6dbd bf73 81bc
000000f0: f00c 47bc 490f 50bc cd46 b33a a38f 13bd
-0.002531782 -0.024592375 -0.007002862 -0.02458992 0.00049135985 -0.0024580527 -0.04414222 -0.03427871
-0.023832498 0.0016562132 -0.007476613 -0.017726606 -0.029964559 0.003119271 -0.0001933744 0.0010391502
-0.029207567 -0.042805623 -0.023215085 -0.017066274 -0.0213304 -0.011487651 -0.000979297 -0.02528081
-0.01880988 -0.026019057 -0.006217603 0.013016666 -0.0075960164 -0.0076904357 0.0028435378 -0.020229502
-0.017583914 -0.014274798 -0.01623321 -0.012821768 -0.029707873 -0.0014710109 -0.032207366 -0.007986423
0.0016655058 -0.0062413104 -0.021599896 -0.044039097 -0.023505054 -0.036419526 0.0005503635 -0.0013687687
-0.017016128 -0.00092803786 -0.0060789296 -0.03240349 -0.008180052 -0.01356478 0.00975848 -0.032641776
-0.008460774 -0.02857467 -0.057914913 -0.015802262 -0.012149081 -0.012698957 0.0013677716 -0.036025655

convs.0.att f4 [1, 4, 16]
00000000: 196a 9a3e cb59 b1bd 4c35 ba3e 7a2c 523e
00000010: 1580 ecbe 22c2 babe cf01 9b3d 248e 8f3e
00000020: 743d 863d 95c3 c13e 0aff 2bbe dc8b e13e
00000030: 0a18 83be 8128 97be 9dbe 913e 4871 c4be
00000040: 9510 7fbe 8c28 4d3e 8e9e e33e 033d f13d
00000050: fe35 f33e fd6f b83e 3fc8 a7be bf54 d0be
00000060: 02e3 6cbe fa8d f3be a3f7 893e 4960 773d
00000070: e591 003e 87b0 2a3f a81e ed3e 8038 a8be
00000080: 8e44 7e3d 1244 71bb 6275 c83e c344 8cbd
00000090: 3798 bb3e 320f 8abe 15d1 ec3d 1103 743d
000000a0: b2f4 15be 7697 be3e 11ad f4be 0069 cabe
000000b0: b546 cf3e d219 873d b999 7d3e 9cc8 8fbe
000000c0: 3403 c3bd cb3b 23bf 6c7b 8fbd a5a8 ec3e
000000d0: 5893 c3be 2858 983d d355 0b3e fec2 c13e
000000e0: 1a89 f53e 40a7 da3e 4143 cdbe 257e aa3e
000000f0: d70c e4be be7f 9e3e fd38 e6be 4d1e 4a3e
0.3015907 -0.08659705 0.36368787 0.20524779 -0.4619147 -0.36476237 0.07568704 0.28038132
0.0655469 0.3784453 -0.16796508 0.44052017 -0.25604278 -0.2952309 0.2846574 -0.38367677
-0.2490867 0.20034999 0.44456905 0.11779215 0.4750213 0.3602294 -0.32769963 -0.40689656
-0.23133472 -0.47569257 0.26946744 0.06039456 0.12555654 0.6667561 0.4631245 -0.32855606
0.062077098 -0.0036814255 0.39152056 -0.06849053 0.36639568 -0.26964718 0.11563317 0.059573237
-0.14644125 0.3722493 -0.4778829 -0.39533234 0.40483633 0.06596722 0.24765672 -0.2808274
-0.09522095 -0.6376311 -0.07005963 0.46222416 -0.38198352 0.074386895 0.13606958 0.3784408
0.47956163 0.42705727 -0.40090373 0.33299366 -0.44541046 0.30956835 -0.44965354 0.19738121

convs.0.bias f4 [64]
00000000: 64e9 0b3a 5772 f33c 9daf 403c 757c 31bc
00000010: afe9 8cbc 6c7a 0fbc ddad 8c3b 2331 1c3d
00000020: e8fd 0dbc 33d5 9abc 37cb 833c 053a e03b
00000030: c9d4 2b3c 41f4 27ba d339 943b d6df a63c
00000040: b3f7 b0bc af20 033d 9509 e23b 88a3 183d
00000050: 77dd c3bc 4b0c e73c 589c 273b 8d90 9a3c
00000060: 5fa5 09bc 20b5 923b aca3 97bb 6fcd 1cbc
00000070: 1099 b83a 942d ef3a c93b b9ba 237e 83bc
00000080: f9b2 28bc 2697 0b3c 585e 3a3c bef6 8c3b
00000090: 184c 8abc e25f 79bc 2c80 8bbc 4989 84b9
000000a0: d7dd 073d 6614 31bb 9fff b23b f071 ae3a
000000b0: 8eef dd3c 5683 0ebc c351 943a 45a1 95bc
000000c0: 6cb1 0e3c 992e 503b 7f21 99bc 5116 173c
000000d0: e2fc 38bc 89be d6bb 1e61 90bc c00f 9fbc
000000e0: 59bc 3c3c 8edf 873b 9690 803c ccca 91bc
000000f0: a8dd dc3c b634 90bc 8de2 953b 3fd8 203c
0.0005337207 0.029717607 0.0117606195 -0.0108328955 -0.017201273 -0.008757215 0.004293187 0.038132798
-0.008666493 -0.01890049 0.016088111 0.006842854 0.010487744 -0.0006406941 0.0045234947 0.020370405
-0.021602487 0.03201359 0.006898115 0.03726533 -0.023909314 0.028204104 0.0025575366 0.018867755
-0.008401244 0.004477158 -0.0046276655 -0.009570464 0.0014083702 0.0018247836 -0.0014132197 -0.016051358
-0.010296577 0.008519923 0.011375032 0.004301875 -0.016881987 -0.015220614 -0.01702889 -0.00025279287
0.033170547 -0.0027020215 0.0054626013 0.0013309103 0.027091768 -0.008698305 0.0011315871 -0.018265376
0.008709293 0.0031766056 -0.01869273 0.009221629 -0.011290761 -0.0065534753 -0.017624434 -0.01941669
0.011519515 0.004146523 0.015693944 -0.017796896 0.026961163 -0.01760326 0.004574126 0.009817182

convs.0.lin_l.weight f4 [64, 64]
00000000: 6969 da3d 5361 253e 96b8 493d fea8 283d
00000010: 276f fcbc 185d 8cbd 9051 b9bc c0c4 57bd
00000020: e8c6 3b3d 61fc a53c 9b55 fc3c d575 1e3d
00000030: 7792 18be 3e0c 633d 5eae 21be 2aaa 963d
00000040: d8fd 383e 16a4 d4bc 5906 053e 7276 9abd
00000050: 74b9 c33d a326 a33d d4b2 ca3c eb67 213e
00000060: b50c c03d 61c0 0bbe ca5f 1dbe 7f18 b1bc
00000070: 52fb 3dbe 20a9 59bd d56b c5bd d0ca a2bd
00000080: e63b 04bd 0c38 2a3c 0335 a9bc 30d8 dcbd
00000090: ff7d ed3d cd83 e5bd c165 f7bd f6c8 98bd
000000a0: 9958 fabd dc30 c93d c4f2 94bd 1881 a8bd
000000b0: fc24 13bd 9f4b 363e b361 55be 4e14 1ebe
000000c0: 0b1d 493c 2516 bcbc ef6e a2bd 694c 333e
000000d0: 3d21 c23d 4b24 4f3d 1022 733b e25a 05be
000000e0: 557d a33d 13cb 073e fd6d 4cbe 0c4f 52bd
000000f0: 68da 093e 5a37 40bb 8f76 c8bd 3f3f d0bd
00000100: 2bb5 173e b1d4 323d 05c6 acbc e2a8 943d
00000110: eca6 163e bf2c b3b9 d4b3 213e 067d c03d
00000120: 13dd eb3d bd71 ba3d b1b0 403e a638 183e
00000130: 19a3 09be f46e 0b3d aff2 eebd f990 083d
00000140: 8f1b 343e 64a4 a53d fadf 85bc 013b 893d
00000150: 75ea e73d 6bd6 313e 4798 193b a576 c6bb
00000160: 8fe4 2a3e c96c 23bd 2011 a33d db0d 42be
00000170: e890 44bd c31e 5f3d 5f79 23bc d161 d63d
00000180: 3309 e8bc fc52 483d 7476 f13d efbe 21bd
00000190: 4df2 303e f1c1 833d f7b9 1d3e 6be2 7cbd
000001a0: 7d55 8b3d 9a4f 31be 845d 603d c26e a1bc
000001b0: ab0f 7dbc d0ad 93bc 615a f23d 9551 2cbd
000001c0: a902 26be 1217 2ebe 16c1 4dbe e377 203e
000001d0: 0f23 213e 4961 f4bd 7f75 59ba 555d af3c
000001e0: ab2e 1f3e e895 a53c 5d17 2ebe 52dd 1cbe
000001f0: a95b ef3c 39e9 91bd 1ce3 1cbe b4c6 e63a
00000200: 138f 41bd b42f 1bbe f96b 2e3d 4abf 503e
00000210: f75a 4c3d a04e 2bbe 3052 0d3e a50a 883c
00000220: e6ed 173e a993 383d f871 1e3e 2e8e 19be
00000230: 884c e23c ebec bf3d 76c8 43be 486b 583d
00000240: a98e d83d 5f0d 993d fb97 b53d 24dc 033e
00000250: 9d43 323e 45f6 803c 7e74 e2bd 57dc 133e
00000260: 1d26 82bc f030 c5bd 790a e93d 7c3a dbbd
00000270: 8ac9 f6bb ecf0 fc3b ee4d 75bd f7e7 2b3e
00000280: 9044 63bd 2b17 f43d 1104 00be 50a6 e53c
00000290: 7af0 2a3e d5c3 2ebe 5783 7d3c 5603 223e
000002a0: cfd4 d13d e82f 84bd fac7 0bbd a70f a1bd
000002b0: 216b 6cbd 976c d03d b041 89bd 3732 9a3d
000002c0: 63b2 693d 6b22 b7bd 5280 913c 195d 263e
000002d0: d9cc 1abe 3071 2e3e 2ede 94bc 42c8 f5bb
000002e0: d867 8f3d 3556 823c addf b43d 20a3 a0bc
000002f0: 32a2 1a3e 9e3d 403e a292 be3d 2ddf dd3d
00000300: d948 a1ba 5a4b 20be ea8d 483d ef46 c3bd
00000310: a2ae da3d 27f7 423e 4f9d 393e ac4f a2bd
00000320: ced4 44be 1c09 8f3d 53db 133e c203 323d
00000330: d121 123e ceba 2dbc 00d2 103c 4fbc 5a3d
00000340: e6f6 0dbe 0c41 1dbe fed7 cf3d 6190 11bd
00000350: ddaf 673d e442 abbd a466 2d3e 4f94 ee3d
00000360: 6e68 39bc 8be8 1d3e 7bca 2f3e 055f 2e3e
00000370: 090c 2e3e 5fd9 e43c 9cd5 023e 03ab ee3d
00000380: 839c 063e b5db 043d 23c0 de3d 8973 f03d
00000390: 7626 183d 6a81 05bd e863 e63d 7a7b 16be
000003a0: bc7c a7bd f86b abbd f48b 443c ed81 3bbe
000003b0: 1d0e f2bd 72ed 43be 70e5 46be e99c 473e
000003c0: e653 81bd 80de e43d 97f3 7fbd d73c 983d
000003d0: 9fef 2a3d 0eee 353d 2c03 1d3e 7642 b33d
000003e0: 5a70 433e a0d1 6fbd 876f dfb9 c733 00be
000003f0: ac51 113e 5fc8 cd3d 2a8a 193e 4663 1c3e
0.10664637 0.16150407 0.0492483 0.04117679 -0.03081472 -0.06853694 -0.0226219 -0.05267787
0.04584399 0.020261945 0.030802539 0.038686592 -0.14899622 0.055431597 -0.15789172 0.07356675
0.18065584 -0.025957149 0.12990703 -0.07542123 0.09556857 0.07966354 0.024743475 0.15762298
0.09377424 -0.13647605 -0.15368572 -0.021618126 -0.18552902 -0.053139806 -0.09639708 -0.0794884
-0.032283686 0.010389339 -0.02065516 -0.10783422 0.115962975 -0.1120678 -0.12079955 -0.07460205
-0.1222393 0.09823772 -0.07272866 -0.08227748 -0.035923943 0.17802285 -0.2083805 -0.15437433
0.012274991 -0.022959778 -0.07931315 0.17509617 0.09478996 0.05057172 0.003709916 -0.1302295
0.079828896 0.1326106 -0.19963832 -0.051344916 0.13462222 -0.0029329867 -0.09788238 -0.10168313
0.14815204 0.04365987 -0.021090517 0.07258774 0.14712113 -0.0003417488 0.15791255 0.09398846
0.11516776 0.09103725 0.18817402 0.1486536 -0.13441123 0.03404136 -0.11667382 0.03334138
0.17588638 0.08087996 -0.016342152 0.06700707 0.11324016 0.1736695 0.0023436712 -0.006056624
0.1668875 -0.039898667 0.07962251 -0.18950598 -0.047989756 0.054472696 -0.009977668 0.10467876
-0.028324699 0.048907265 0.11790171 -0.03948873 0.1727993 0.06433476 0.15402971 -0.061739367
0.06803415 -0.17315522 0.054776683 -0.019706134 -0.01544563 -0.018027216 0.11833645 -0.04206999
-0.16211952 -0.17000988 -0.20093188 0.15670733 0.1573603 -0.11932618 -0.00082954013 0.021406809
0.15545146 0.020213082 -0.170011 -0.15318802 0.029218512 -0.07124562 -0.1532101 0.0017606826
-0.047255587 -0.15154916 0.04258344 0.20385471 0.04989144 -0.16729212 0.13800883 0.016606638
0.14836845 0.045062695 0.15473163 -0.14995643 0.027624384 0.093713604 -0.19119439 0.052836686
0.10574085 0.074732535 0.088668786 0.12876946 0.17408605 0.01574243 -0.11057375 0.14439522
-0.015887314 -0.09628475 0.113789506 -0.107045144 -0.0075313495 0.00771915 -0.059888773 0.16787706
-0.05548531 0.119184814 -0.12501551 0.028033406 0.16693297 -0.17066891 0.015473208 0.15821585
0.10245668 -0.0645445 -0.03412626 -0.078643136 -0.057719354 0.10176962 -0.06701982 0.07529109
0.05705489 -0.089421116 0.017761383 0.16246451 -0.15117206 0.17035365 -0.01817235 -0.007500679
0.070022285 0.015910247 0.08831725 -0.019609034 0.15100935 0.18773505 0.09305312 0.10833583
-0.0012305035 -0.15653744 0.048963465 -0.09535014 0.1067784 0.19039594 0.18126415 -0.079253525
-0.19221804 0.06984159 0.14439134 0.043460615 0.14270712 -0.01060362 0.00883913 0.05340224
-0.13863716 -0.15356845 0.10148619 -0.03553808 0.0565642 -0.08362368 0.16933686 0.11649381
-0.011316402 0.1542074 0.17167084 0.17028435 0.16996779 0.027935682 0.12776798 0.11653712
0.13145642 0.03243609 0.10876491 0.117407866 0.037146054 -0.032594122 0.11249524 -0.1469554
-0.08178088 -0.08370203 0.011996258 -0.18311282 -0.11819098 -0.19133547 -0.19423461 0.1949345
-0.063148305 0.11175251 -0.062488165 0.07433479 0.041732427 0.04441648 0.15333241 0.08752911
0.19085827 -0.058549523 -0.0004261697 -0.12519751 0.14191312 0.100479834 0.14994112 0.15272245

convs.0.lin_l.bias f4 [64]
00000000: 3651 153d 6d4b 293d 8c6d c1bd 07b3 a03c
00000010: 30c7 bb3d e997 92bd 1ef7 303c 2172 04be
00000020: 9e98 193d fd69 2d3d f1f8 c33d ad52 2dbd
00000030: 5709 913b a629 853d fb1b a53d f527 c53b
00000040: 21d4 27bb 9a6e 04bc df50 42bc e943 1e3b
00000050: 3bcc 10be b8c2 38bc d7e7 be3d 9669 2e3e
00000060: 75e3 913d a2be c3bd 4a3e 9abc 6755 b7bc
00000070: fea7 dcbc 39a5 1b3d d014 93bd ccf9 7e3d
00000080: 4522 c0bd 81d4 ecbc 072f 8a3d 32ef afbd
00000090: 4ff3 a1bd 4a7a fb3d e1c1 b23d 8677 d93d
000000a0: 44fc a2bc 4fea cd3d 5fbe 0f3e 2af7 ff3d
000000b0: d161 6bbc 2c03 84bd 309e 82bc 59b5 d8bd
000000c0: 590b ce3d 08af b23c d4ee b3bb a7c5 ecbc
000000d0: ddea b83d 5fb4 a8bd 3280 073c cf53 b2bd
000000e0: 2022 d33d 0fd5 8ebd 6927 d13d 03f5 7cbc
000000f0: 6b91 9fbd b3a0 173c 7aee b7bd ad1c 5a3d
0.036454402 0.041331697 -0.094447225 0.019616617 0.091688514 -0.07157881 0.010801105 -0.12934162
0.037499063 0.042337406 0.09568966 -0.042315174 0.004426162 0.065020844 0.080619775 0.006016726
-0.0025608616 -0.00808301 -0.0118601015 0.0024149364 -0.14140408 -0.011276893 0.09321564 0.17032465
0.07123462 -0.09557845 -0.01882853 -0.02237959 -0.026935574 0.037999365 -0.07181704 0.062249944
-0.093815364 -0.028909924 0.06747251 -0.08590545 -0.079077356 0.12279184 0.08728386 0.106185004
-0.01989568 0.100544564 0.14037465 0.12498315 -0.014366583 -0.064459175 -0.01594457 -0.10581464
0.10060758 0.021811977 -0.005491117 -0.028902842 0.090291716 -0.08237528 0.00827031 -0.087073915
0.10309243 -0.069742315 0.10212595 -0.015439275 -0.07791408 0.009254622 -0.08981033 0.053250004

convs.0.lin_r.weight f4 [64, 64]
00000000: 8dba 32be cbc0 ecbd 493d 7bbc 6f57 12be
00000010: ab5e 333d 47a6 04be 4952 233e e348 c03d
00000020: e64a 00be 8f62 843d 3bf1 e5bd f3e7 ad3d
00000030: fec8 bcbd fe9f d33d f131 63be 2b9d 843c
00000040: 160c 1e3e 46ab e93d 6257 163e fb1d bdbd
00000050: c796 ffbd 2385 9d3d b212 20bc 6f1c 2cbe
00000060: 8a39 0a3e 9689 a43d b376 a93d 7d9b 02be
00000070: ec4c 0fbe 457d 483e e147 433e fe07 d83c
00000080: faf8 86bc ee5f d03d e3a5 90bd 1253 ae3c
00000090: 98f7 1ebe 380d 023e c329 0bbe 8e80 76bd
000000a0: 656c 21be 499e cebd 4a8c 093c c0f4 20be
000000b0: 1f8e 0f3e e618 8dbd 932d fc3d 05b8 23be
000000c0: 36db 223e dc55 d73d f928 8cbd 5c2f 87be
000000d0: c823 bbbd 1e82 24be 7279 c53d 62c2 9e3d
000000e0: 09d8 8e3d 418b 3c3e e0fd 0bbe 9214 adbc
000000f0: ba95 333d 0d7b afbd 4e3b 053d d260 873b
00000100: b23e 013e 9986 9bbd 336e 08be 413d b63d
00000110: 1c70 88bd 3788 473c 5255 0d3e 7ff3 473e
00000120: 3b5f 0b3e 27c3 fd3b 0c67 9e3c e6b1 eebd
00000130: f313 a9bd d6fe 403d b7f4 d4bc f987 3bbe
00000140: efc2 a43c e94f 46be 9904 6bbe 7702 69bd
00000150: ad73 293e 524a 12be 52dd ebbd 018a b1bd
00000160: 8337 f0bc c475 773b 59ee 023b 6b86 243e
00000170: 8148 d2bd 963b e93d c062 2fbe abee ddbd
00000180: a591 803d 7d7e 12be f306 253e 7050 54be
00000190: 8529 09be daf1 a03d 8d69 2b3e 122d 733c
000001a0: e740 9abc 2d48 a1bd 5db4 a93c 1d42 203d
000001b0: 7034 2e3d 8fac 843d 978e f13c 8e70 1c3e
000001c0: df0b 3e3e f130 92bd 14d0 ca3d ea21 4cbe
000001d0: 8be5 93bd 868e 133e 4ff7 563d 850b 393d
000001e0: 3b6c f93d 76e3 c5bd f4af 27be d084 2bbe
000001f0: 7226 403d 00b3 7bbd c937 b7bd 33c6 8abd
00000200: 6949 8bbc c099 aebd 3381 703d c3e3 96bd
00000210: 9224 29bd cfc5 0d3e 8ef6 b03d dee3 2d3e
00000220: 8ef7 19be 464f 073e 1b95 68be 8e77 093e
00000230: 3378 dfbd 5a65 63be 6882 fc3c 28e2 323e
00000240: a8a9 e23d c086 8b3d 82d7 6d3d ca07 143e
00000250: 32b0 ad3d f1c8 5c3c 5c3b bebd 6526 fd3d
00000260: a888 89bc e770 2c3e a26d 34bc b560 853b
00000270: 8266 d63d 5b2d b33d 89c0 ff3c ad2a 8cbd
00000280: c166 0ebd c5fa aa3d 8c3b 843d d33a f5bb
00000290: ba5f 77bd 8e1e 97bd bd01 9f3c 027d f3bd
000002a0: c43f 40be 9fed 14be aaa7 2abe d7f3 1a3e
000002b0: 1a3c 283a c0e2 373d 1fac 713e c5ae 1b3e
000002c0: 7083 053e 7aaf 13bd 156b cfbd 8620 ca3d
000002d0: f94b aabd 0e19 cabd cbe2 28be d917 933d
000002e0: a96b 48bd 95b1 89bc 09c9 dabd f6e1 fdba
000002f0: 3fd6 3abd 57c3 993c 7c64 bcbd 92f0 9d3c
00000300: de24 b63d 97db 123e 5bf9 44bc 3a24 c63d
00000310: c96d bf3d 608e 233e 8555 2c3d de53 c73d
00000320: c331 8e3c 5558 1bbe 1457 16bd c2e6 10be
00000330: 6046 8abd 5582 963d 4b41 213e 580c 1c3e
00000340: fa5d 43bd 58a6 423c a009 223e 72a6 56bd
00000350: 4dd9 333c bc82 363b 4583 44bd 3f64 073e
00000360: 81ac c9bd 99c1 c83d b878 383e 4afd 21bd
00000370: 4901 2fbe 6940 303e 6e84 b53b 4e2e 623d
00000380: 77da 343d ff2f e7bd 3abf 13be 4d06 66bd
00000390: ba29 b4bd 45ff 22bd a956 903d 7467 153e
000003a0: 22fb 06be a777 c5bd 3adb 013e 581e f83d
000003b0: a269 d1bd 1a6d 1c3e b966 383d adb1 8d3d
000003c0: ff1c 9bbd 53b2 293e db54 8f3b 6d2f bebd
000003d0: c696 603d 0c3c 303c 2333 71bd 7200 d7bd
000003e0: 0a30 1b3c 2379 123e 5d1f 34bd 85e1 c33c
000003f0: 7235 0f3e faab 15bd b35f 703c a2fb a2bc
-0.17453976 -0.1156021 -0.015334436 -0.14291166 0.043791454 -0.12954055 0.15949358 0.09388902
-0.12528571 0.06464111 -0.11227652 0.084915064 -0.09218024 0.103332505 -0.2218702 0.016188225
0.15434298 0.11409621 0.14681771 -0.09234234 -0.1247993 0.076914094 -0.009770082 -0.16807722
0.13498512 0.08034055 0.08274593 -0.12754627 -0.13994187 0.19579037 0.19070388 0.026370998
-0.016476143 0.10174547 -0.070628904 0.021279845 -0.15524137 0.12700355 -0.1359015 -0.060181193
-0.15764005 -0.10088784 0.008395264 -0.15718365 0.14019059 -0.068895146 0.1231338 -0.15988167
0.15903935 0.10514423 -0.068437524 -0.2640332 -0.09137684 -0.16065261 0.096423045 0.07751919
0.06974799 0.18412496 -0.13671064 -0.021127973 0.043843962 -0.08568392 0.03252726 0.004131415
0.12621573 -0.07594032 -0.13323288 0.08898402 -0.06662008 0.012178472 0.13802078 0.1952648
0.13610546 0.0077442112 0.019336246 -0.11655025 -0.08255758 0.04711803 -0.025995595 -0.18313588
0.020112483 -0.19366421 -0.22950973 -0.056887116 0.16548033 -0.14286163 -0.11516823 -0.086689
-0.029323345 0.0037759403 0.0019978492 0.16066901 -0.10267735 0.11388318 -0.17127514 -0.10836538
0.062777795 -0.14306064 0.16115932 -0.2073381 -0.13394745 0.078586295 0.16739483 0.014842289
-0.018829776 -0.078750946 0.020715887 0.03912555 0.042530477 0.064782254 0.029486937 0.15277311
0.18559216 -0.07138241 0.09902969 -0.19934812 -0.07221516 0.14409837 0.052481946 0.045177
0.121788464 -0.09662525 -0.16375715 -0.16749883 0.046911664 -0.061450005 -0.08946187 -0.06776085
-0.017002778 -0.08525419 0.058716964 -0.07367661 -0.04129464 0.13844989 0.086407766 0.16981456
-0.15035841 0.13213834 -0.22713129 0.13424513 -0.10911598 -0.22206631 0.030823901 0.17469084
0.110675156 0.06812811 0.058066852 0.14456096 0.08480872 0.013475643 -0.09288666 0.12360839
-0.016788796 0.16839944 -0.011012467 0.0040703663 0.104687706 0.08748885 0.031219738 -0.06844077
-0.034765963 0.08348612 0.0645667 -0.007483819 -0.060394026 -0.07378875 0.019410009 -0.11889078
-0.18774325 -0.1454377 -0.16665521 0.1513208 0.0006417647 0.04489398 0.23600815 0.15203388
0.1303842 -0.03605602 -0.10127846 0.098694846 -0.08315272 -0.0986806 -0.16492765 0.07182283
-0.048930798 -0.01680831 -0.10682876 -0.001936971 -0.045614477 0.018769903 -0.091988534 0.019279752
0.088937506 0.1434158 -0.012022342 0.096748784 0.09347112 0.1597228 0.042073745 0.09732793
0.017357713 -0.15170415 -0.036704138 -0.14150527 -0.06751704 0.073490776 0.15747564 0.15239084
-0.047697045 0.01188048 0.15823984 -0.05240483 0.0109771015 0.002784892 -0.04797675 0.13221835
-0.09847356 0.09802551 0.180148 -0.039548196 -0.17090334 0.1721207 0.0055394685 0.05521994
0.044153657 -0.112884514 -0.14428416 -0.056158353 -0.08797021 -0.039794225 0.07047779 0.14590245
-0.13181737 -0.096419625 0.12681285 0.121151626 -0.10225226 0.15275994 0.04501984 0.069186546
-0.0757389 0.16571932 0.004374129 -0.092863895 0.05483129 0.010756504 -0.05888666 -0.10498132
0.009471903 0.14304022 -0.043975223 0.023911247 0.13985232 -0.036540963 0.014671254 -0.019895379

convs.0.lin_r.bias f4 [64]
00000000: f2dc 13bd b1de 433c 9e90 90bd 20ad 733d
00000010: 0fbf 51bd 225a 3dbd bb25 92bd 1062 053d
00000020: 9b95 b83d 8a4b 82bd 9566 02bc 09e7 7dbd
00000030: 251b b43d b467 193d 8656 ad3d 647f e6bd
00000040: ba0e 2e3d 3d37 713d 4127 d5bc d0ee a13c
00000050: e5cc 823d 672f 453d b39f a93d dce6 1dbd
00000060: 493a 643d 959f 273d 749e e63c 44ce ee3d
00000070: 4558 68bc e11a 493d 3eaa 7d3c df13 203d
00000080: ad51 afbc 2327 453a 7da3 ce3d 4836 a13d
00000090: 0184 2abd 7a3f a2bd 3086 9d3d 8c30 5cbd
000000a0: 724a 873d 0f4a 81bd d3fe b6bb 883b b6bb
000000b0: ecfa bb3d 7559 953d 0615 95bd 81a2 69bd
000000c0: 64f2 843d 1a54 3cbd ddbd 8cbd cba9 b1bd
000000d0: bf3e a53d aa8d edba 63d4 c6bd 5780 31bd
000000e0: e893 babd d98b cd3d 0f4b bbbd 46b3 443d
000000f0: 202a e6bd 347a a9bc c39b b7bd 584d c0bb
-0.03609938 0.011954949 -0.070588335 0.059491277 -0.0512076 -0.046228535 -0.07136103 0.032564223
0.0901291 -0.06362064 -0.007959028 -0.06198791 0.0879424 0.037452415 0.08463769 -0.112547666
0.042494513 0.05889057 -0.026019694 0.019767195 0.06386737 0.04814091 0.08282413 -0.038550243
0.055719648 0.040923674 0.028151728 0.11660436 -0.014181201 0.0490979 0.015482483 0.03908145
-0.02140125 0.00075207854 0.10089777 0.078716815 -0.041629795 -0.079222634 0.0769161 -0.053757235
0.06605996 -0.06312954 -0.0055845766 -0.005561296 0.09178719 0.07292453 -0.072794005 -0.05703974
0.06491545 -0.045978643 -0.06872151 -0.086749636 0.080686085 -0.0018123884 -0.09708478 -0.043335285
-0.09110242 0.100364394 -0.09145176 0.04802253 -0.112385035 -0.020688154 -0.08965256 -0.005868595

convs.1.att f4 [1, 4, 16]
00000000: cbf1 2f3e 5ada 91be 2d73 1f3e 035d 07bf
00000010: f42c 9c3e 5557 143c ae0c 16bf c7cb 1abe
00000020: ff97 03bf f66f 593e b059 10be e70d e1be
00000030: 5c0f edbe e3d3 c73e 9d2c 84be f32b fa3e
00000040: 7cb0 ffbe 0e77 0bbe 5e90 43be d611 5fbe
00000050: 12cf e2be d6dc c7be 8b34 d23e c027 44be
00000060: 7ffe 243e d937 943e a352 9c3e 4976 6fbe
00000070: f307 28be 85e8 b7be 2811 f53e 4462 e6be
00000080: d9e3 9abe 5632 dcbe 6893 563e e73b db3d
00000090: dfdf d83e 3944 dc3e cc2d f53d 3c7d 9cbe
000000a0: 1f90 353e f94e 053e 4d64 9b3e 02fc 88be
000000b0: 2cdd b03e 277e 3c3e 9f4e c73d d327 a4bd
000000c0: 807c 27be ec89 81be dba3 dd3e 6f25 01bf
000000d0: 139f f83e c687 82be 94a7 ecbd 5b66 11be
000000e0: c227 743e bb4e 08bf 2854 b53e 8d62 023f
000000f0: a72d 9e3d a8c5 04bf 6980 0d3f 9fb3 f1be
0.1718208 -0.28486902 0.1557128 -0.528763 0.30503047 0.009054025 -0.586131 -0.15116797
-0.514038 0.21234116 -0.14096713 -0.4395592 -0.4630078 0.39028844 -0.25815287 0.48861656
-0.49939334 -0.13619635 -0.1909804 -0.21784148 -0.44298607 -0.39035672 0.41055712 -0.19155788
0.16112708 0.28948858 0.30531797 -0.23384966 -0.16409282 -0.35919586 0.47864652 -0.44996846
-0.3025196 -0.43007153 0.20954669 0.10704785 0.423583 0.430208 0.11971626 -0.30564296
0.17730759 0.13018407 0.3034996 -0.26754767 0.3454374 0.18407498 0.09731793 -0.08015408
-0.16356087 -0.2530054 0.43289074 -0.50447744 0.48558864 -0.25494212 -0.115554005 -0.14199202
0.23843291 -0.53245133 0.3541577 0.50931627 0.07723551 -0.518641 0.55274063 -0.47207353

convs.1.bias f4 [64]
00000000: 297b 90bb 76dc 1dbb dec7 be3a 0457 23bb
00000010: 6267 a8bb 3694 b83a 1cd7 e33b 6322 2439
00000020: f2f6 ca3c 450e b8bb ae4e a6bb b51e 80bb
00000030: e751 14bc f769 8ebb dd0c 113a dc2a 06b9
00000040: 9289 043b 4de5 b839 581c af3b f81d 67ba
00000050: bb8d d93a 7f1f 05bb 6d7a 8d3b 7152 133c
00000060: 541a 8c3a 6f90 c73c 9a46 98bc c499 c9bb
00000070: fdbf 71bc 308f 003b 65d2 963b db4c 65bc
00000080: debc 053c 5240 813b e017 7dbc 1d97 5ebc
00000090: eafa c2bb d496 983b 96aa 1f3b 85bd a13b
000000a0: b92f 7abb 8040 733b 54e2 e83b 3e91 8c3b
000000b0: 7b6b 0bbc 506e 9b39 0cbe fb3a fda6 b13a
000000c0: 839f d3ba 8b51 f9b9 195e 19bb 0625 e63a
000000d0: ccd5 8e3a 3f59 0ebc cde8 c0b9 f0fc 1bbb
000000e0: 4af6 a23a ca83 1bbc 2f34 0dbc e0e9 00bc
000000f0: 14fd 6abb 70d2 2d3c 1497 babb e6f4 2bbc
-0.004409213 -0.0024087704 0.0014555415 -0.0024923692 -0.0051392773 0.0014082256 0.0069531333 0.00015653069
0.024775956 -0.0056169354 -0.0050752973 -0.0039099106 -0.00905273 -0.004346128 0.0005533228 -0.00012795202
0.00202236 0.00035266057 0.005343955 -0.00088164164 0.0016598025 -0.0020312963 0.004317573 0.0089918235
0.0010688999 0.024360863 -0.018588353 -0.0061523635 -0.014755246 0.0019616596 0.0046027177 -0.013995375
0.008162705 0.003944435 -0.015447587 -0.013585833 -0.0059503214 0.004656652 0.0024363152 0.0049359226
-0.0038175418 0.0037117302 0.0071070585 0.004289775 -0.008509512 0.00029646093 0.0019206419 0.0013553795
-0.0016145561 -0.00047553735 -0.0023402034 0.0017558641 0.0010897457 -0.00868827 -0.00036794544 -0.0023801886
0.0012433019 -0.00949187 -0.008618399 -0.00786826 -0.0035856413 0.010609254 -0.0056942794 -0.0104954

convs.1.lin_l.weight f4 [64, 64]
00000000: 50b1 64bd 60b8 eeba 6139 443e 1da2 653e
00000010: 62dc cbbd bc1b 1bbd 859a f7bd 8d50 ebbd
00000020: 3df6 12be 2712 0f3e 3d3f 82bd ab67 ac3d
00000030: 3852 623c 7421 acbd 52f7 fdbd 665c 2ebe
00000040: 4bac 233e 6138 453d 42a7 4b3e bbca 33be
00000050: a3c1 38be d2a8 233e 6aea d1bd 73e6 713c
00000060: e1a7 1cbe 94cc 223e eddd 1b3e 161a a7bd
00000070: d479 bdbd 8af8 65ba d5dd adbb da9b 17be
00000080: 3737 df3d 9421 163e c048 aebd d5a5 803b
00000090: d8b3 34be 7a12 f5bd eda5 013e 9aa1 b9bd
000000a0: 988e ee3c da4e 35be bc15 9c3d 2164 12be
000000b0: 92a0 b2bd c253 343d 3879 2e3d 8a61 62bc
000000c0: ce2a aabd 347b 153d d6e8 f3bd 48b0 f43d
000000d0: 8b08 10be a414 a0bd dc8c 72bd 85c9 523d
000000e0: 175c 5dbe 54fd cabd 5424 b1bc 2c17 28be
000000f0: a112 d93d 5f7d 173e 001b 463e e640 453d
00000100: 82f4 863d a541 f83d c138 42bc 7502 98bd
00000110: 17e9 eebd dcc2 203e df77 febd 471f 5f3d
00000120: e7ac 4e3d 350c b93d c529 983d a24e 5dbd
00000130: df33 513c 1d1a af3d b85d 2abe 68ac f3bd
00000140: c08e a1bd 29e0 f03d 0bcd 003e 3031 693d
00000150: 9f97 253d e6a0 c6bd 1f17 273e 5771 5bbe
00000160: dee8 fabd 6fc3 4c3d 2ff1 18bc 95d0 fb3d
00000170: 29f3 4d3e a265 c8bd be7c f3bc 869a d53d
00000180: cd0c a43d ba66 0cbe 758f 48be 289b 31bd
00000190: b3b1 e2bd 6184 013e 5dab 00be 055e d2bd
000001a0: 2a73 ddbd ca99 5abe 62c5 033e 380c fabd
000001b0: 7dc8 143e de49 213e b84d 20bd 395d ab3d
000001c0: 92f0 cc3d 59cd 293e 8151 0fbe 2c5b 13be
000001d0: cb89 323e b0b1 f6bd 0672 343d 7b4d b53d
000001e0: 18e2 54bd c6b0 c43d 28c7 a53d 8b83 dc3d
000001f0: 88e9 83bc 035a d53d c12e f53d 39c5 06bd
00000200: c831 c43d 7bd6 e6bd f723 333e 0e62 28bc
00000210: c644 a53d b414 f23d 48df 0a3d fa76 1c3e
00000220: 9b60 abbd acc6 033e 4f2e 43be c238 d73d
00000230: 362f 0cbe f283 c8bc 4fff dabd a99e 1b3e
00000240: fd11 313d af8b 013e f05b 623c a2e9 bc3d
00000250: fa7e 5abe ceae 9d3d 8cc5 a43c fff1 213e
00000260: 3cdf 8f3d 2d86 c93c 7a86 9b3d 1eb6 813d
00000270: b6e9 9f3d ae2a dfbd a903 be3d 3e23 3c3d
00000280: 15a9 98ba 9c20 97bd c327 bcbc 62b2 3bbd
00000290: f114 bdbd 14c9 fabd 98a1 4e3e 5ad2 5e3d
000002a0: 391f 47be bb60 993d 6611 ca3c 763f 053e
000002b0: 2c99 c43d 27ab f33d 1cef cdbd 48f4 8e3d
000002c0: 0700 19be fece 353e cb76 27bd 0338 0abe
000002d0: 4046 27be 9766 873d c7a5 f83d 5d46 b7bd
000002e0: 6e80 633d 34b1 31be 0f4d 813d 294b b9bc
000002f0: 914d 083e 96e2 0f3e f6de a2bd 30d3 b63d
00000300: ce5c 073d febd 13be 3b7a 3c3d 9845 e8bc
00000310: 8252 133e cd1e 8ebd aae8 9ebc 6375 4dbd
00000320: 63d2 bebc a50c 0d3e ab0d 013e 8dd9 3fbe
00000330: 8603 323e de81 39bd f17b 24be 714a 4c3c
00000340: 152a b03c c964 46be 7b4c 263e 9794 6e3d
00000350: c1c9 e7bd cd05 ed3c c766 dcbc 17cb babb
00000360: bb0e 19be cfe7 273e 015c 28be 983b 05be
00000370: 49a6 27be d0ce b5bd f3e5 283e f8ac 233e
00000380: 4b07 963d bd73 783c 953f 5d3d 22af 9abd
00000390: 6ad0 40be 57cd ecbd 1192 fbbd 61b0 003e
000003a0: 97ae 683d 233b 11be 916f 1abe 1e2f 5f3e
000003b0: 3330 e7bd 2e2e 313b 8e80 df3d e445 2a3e
000003c0: 89c2 92bd 590d d2bd b9bf febc fc16 073e
000003d0: 885c e73d 0e21 2f3e e6b1 79bd 57fe 1fbe
000003e0: 9efc 2cbe 420f 323e 6be9 be3c f25f 3a3e
000003f0: 18f7 e73d a1ac c33d d333 1a3e f276 1e3e
-0.05583316 -0.0018212907 0.19162513 0.22425123 -0.09954144 -0.037868246 -0.12090019 -0.11489973
-0.14351745 0.13971768 -0.06359718 0.084182106 0.013813548 -0.08404818 -0.12400688 -0.17027435
0.15983693 0.04814947 0.19888023 -0.17557804 -0.18042617 0.15982369 -0.10249789 0.014764416
-0.15298416 0.15898353 0.15221377 -0.081592724 -0.092517525 -0.0008772692 -0.0053059855 -0.14805546
0.10899203 0.14661247 -0.0850997 0.0039260187 -0.1764673 -0.11966415 0.12660952 -0.09064026
0.029120728 -0.1770586 0.07621333 -0.14296009 -0.087220326 0.04402519 0.042596072 -0.0138172
-0.083089456 0.03649445 -0.11909644 0.119476855 -0.14065759 -0.07816437 -0.059216365 0.051461715
-0.2161716 -0.099116 -0.021623768 -0.1641509 0.10599256 0.14793919 0.19346237 0.048157595
0.06589605 0.12121896 -0.0118543515 -0.07422344 -0.11665552 0.15699333 -0.12425207 0.054473188
0.05045786 0.090355314 0.07429842 -0.05403007 0.012768715 0.085499026 -0.16637313 -0.11898118
-0.078885555 0.11761505 0.12578218 0.056931674 0.0404278 -0.09698658 0.16317414 -0.21429954
-0.12251447 0.049991067 -0.009334846 0.12295643 0.2011229 -0.0978501 -0.029722568 0.10429864
0.08010254 -0.13711062 -0.19585975 -0.04336086 -0.1106905 0.12648155 -0.1256537 -0.10271839
-0.108129814 -0.21347728 0.12868264 -0.12209362 0.14529605 0.15750834 -0.03913662 0.0836739
0.10006823 0.1658224 -0.13995935 -0.14390248 0.17435376 -0.1204561 0.044054054 0.08852669
-0.051973432 0.09604029 0.08094627 0.10767277 -0.016102567 0.10417559 0.11971808 -0.03290293
0.095798075 -0.11271378 0.17494188 -0.010277284 0.08069758 0.11820355 0.033904344 0.15279761
-0.083680354 0.12868756 -0.19060634 0.105088726 -0.13689885 -0.024476979 -0.106932275 0.15197243
0.043230046 0.12650941 0.013815865 0.092242494 -0.213375 0.07699357 0.020113729 0.1581497
0.070250005 0.024600113 0.07594009 0.06333564 0.07808249 -0.108968124 0.09278042 0.045932047
-0.001164707 -0.073792666 -0.022968179 -0.045824416 -0.0923251 -0.12245384 0.2017883 0.054399826
-0.19445504 0.07489153 0.0246665 0.1301249 0.09599528 0.11897879 -0.10055372 0.06980187
-0.14941417 0.17754743 -0.040884774 -0.1349793 -0.16335392 0.06611364 0.121409945 -0.089489676
0.055542402 -0.17352754 0.06313526 -0.022618847 0.13310839 0.1405128 -0.07952683 0.089269996
0.03304749 -0.14427945 0.046015006 -0.028353497 0.14386943 -0.069394685 -0.019398052 -0.050160777
-0.02329368 0.13774355 0.1260287 -0.18735333 0.17384157 -0.045289867 -0.16062905 0.01246892
0.021504441 -0.19374384 0.16240112 0.058247175 -0.113177784 0.02893343 -0.026904477 -0.0057004797
-0.14947025 0.16397022 -0.16441347 -0.13011014 -0.16372027 -0.08877337 0.16493969 0.15983951
0.0732561 0.015164313 0.054015715 -0.07552935 -0.18829504 -0.11562603 -0.12283719 0.12567283
0.056807127 -0.14182715 -0.15081622 0.21795318 -0.1128849 0.0027035582 0.10913192 0.16628224
-0.07166011 -0.10256452 -0.03109728 0.13192362 0.11296946 0.17102453 -0.060960673 -0.15624367
-0.16893241 0.17388633 0.023304662 0.18200663 0.11326426 0.09554411 0.15058832 0.15475062

convs.1.lin_l.bias f4 [64]
00000000: a7e8 06bd 433d ba3d 3f47 cc3c 963c 18bd
00000010: 18d4 943d 4297 4c3d ff30 1cbd 704a 8abd
00000020: 1470 b33d 2891 b6bc 2fcf 87bc 67b6 13bd
00000030: a24d 803d fb32 b7bd dc97 1cbe edef 9f3d
00000040: 27ab 64bd a439 c23c bf0f 033d 46d8 9fbd
00000050: 53c2 4ebc 5485 e63d 3282 853d 7771 69bc
00000060: 5fb5 013d 2e9b 94bb 305b 20bd e950 c63d
00000070: 7395 7b3d c5ba d0bd 0762 efb8 610b 2bbd
00000080: 5e72 9f3c f889 193e c303 8a3d 4992 0a3e
00000090: ffb7 9f3a 6d51 a1bc c584 dd3a b8a6 383c
000000a0: ca82 a53d e802 ea3c ec9f 323d 8372 2d3d
000000b0: a897 3dbd 4595 933c 084a 843c e5d3 563d
000000c0: 246c 46be 035b 1b3d 1fcc 3a3a 0914 1d3c
000000d0: d9fb 3b3e c009 32be 7bb2 783d 1e3c 183c
000000e0: 6f36 c9bc 6459 a43d 7918 a63c ccfb fdbc
000000f0: f3f3 b4bd 78d5 8b3d 203b ef3c c02b bbbd
-0.03293672 0.09093716 0.024936317 -0.037167154 0.07267016 0.04994894 -0.038132664 -0.06752479
0.087616116 -0.022286013 -0.016578285 -0.036062624 0.06264807 -0.08945271 -0.15292305 0.07809434
-0.055827286 0.023709126 0.03199744 -0.07804923 -0.012619573 0.11255899 0.065189734 -0.0142482435
0.03166711 -0.0045351004 -0.039149463 0.09683401 0.061421823 -0.101918735 -0.00011414667 -0.0417589
0.019463714 0.14994037 0.06738999 0.13532366 0.0012185572 -0.019692147 0.001690053 0.011270218
0.08081587 0.028565839 0.043609545 0.042345535 -0.04628721 0.018015513 0.016148582 0.052448172
-0.1937719 0.037928592 0.00071257533 0.009587296 0.18357791 -0.17386532 0.060717087 0.009291677
-0.024562089 0.080248624 0.020275341 -0.031003855 -0.08835592 0.06827825 0.029202998 -0.09139204

convs.1.lin_r.weight f4 [64, 64]
00000000: b0c3 773e b0a0 b23d 1cd7 353e acd1 3f3e
00000010: 9298 c3bd b8a6 45bd 95a4 1b3e 7d8c 61bd
00000020: d48c 983c e28e 2ebd 093c 043d 28df af3d
00000030: 2a3a 233e ba39 d3bd 2872 5e3e 8df4 a73d
00000040: feb8 4d3d 19c1 9c3d d60e 673e 9067 1bbe
00000050: 83fa 7ebd ab73 0fbe b061 92bd a2f0 12be
00000060: 5b78 f83d 1369 85bd f458 193e 6ea6 223e
00000070: fc4f 623e 2ef5 a9bc ed15 38be 35d7 9abd
00000080: c86a 88bd 4de0 28bd f227 9cbd 5e1a 273e
00000090: 58ab 67bd fc12 7d3e 8d82 1f3e 83c3 28be
000000a0: 81a6 05be 5eb5 1a3e a34c 243d 1f8b 80bd
000000b0: e7b7 8abd 4b1a cbbd d870 9ebd b975 0bbe
000000c0: 4407 7fbd a6d8 87bd d034 a13d 0cff 43b9
000000d0: 82de 313d 1f0b edbd 891e 5a3d f1dc b3bc
000000e0: 5ea2 a1bd dfba 02be ce87 d13d 8461 59bd
000000f0: c28f e83d 3927 b03c fa9e 323e 3465 d83d
00000100: c6a4 04be b622 23be d323 1ebd 0bf5 963d
00000110: 604c a8bd 1ebe 1ebd da98 12be 03a5 9d3d
00000120: 16e2 493d 0582 423e 581e 2a3d af9d 203d
00000130: 8866 9c3d 102b 04be 2059 403c 3258 06bc
00000140: f4d1 253e 1fbb 1f3e 0544 433e 33ea 2c3d
00000150: 1fc3 27bc ec88 f63b 552f 543d 9e9f a0bd
00000160: b502 0c3e 7ef5 00be b7b1 563e 3e1f bcbd
00000170: 4179 55be ff9c f13c 3371 6b3c e539 0a3e
00000180: d4cc 32bc 760c 17be e81c 4abe 013f 0abe
00000190: 2cd2 813d d406 7fbc 990e 733d c9a4 f7bd
000001a0: 7493 283e f998 753d 943b 17be 9fd4 0fbe
000001b0: 4eb6 dbbd a1a6 8d3c d575 21bc 3350 02bd
000001c0: 9026 83be e7ed 1d3d d76a de3b 753b 333e
000001d0: d310 93bd 30a0 0f3e f311 32be 8b13 babd
000001e0: e4ea 56bc c77e b03d a705 923d 7ab8 6bbb
000001f0: 730d 2abe 5968 eebc 10bb 2f3e 76bb 92bd
00000200: c3ef 34be fa2f 1cbe c717 4ebe b164 e33d
00000210: f86f 013e 9e71 d23d e99a 073e 97fc fdba
00000220: e876 79bc e0c3 3bbd 26ff 5ebd 3da6 733e
00000230: bb45 153e d706 083e 0cd0 bb3c dc00 063e
00000240: 99f0 503e 9adb d83d 3d75 043e 912f 70bd
00000250: 83fd 513d 26f2 083d 865b a13d bf08 f5bd
00000260: 814c 88bd 2c8d 4c3e a22c 5ebe cc4d cc3d
00000270: 0bb5 01be 311f 25be 7ef1 90bd c087 a1bd
00000280: f5ad 91bd 6b3f 4dbd 6d58 0abe a5e0 3f3d
00000290: c7f0 b43d 2113 a5bd 5cb7 35be 4249 403e
000002a0: 5eb7 1cbd 1ed9 3d3d ad5a 22be 3c30 0b3d
000002b0: e962 1f3e 44c7 f2bc 3c6d 2a3e 8942 25be
000002c0: 38f9 7abe 6b18 5cbe 702f ca3a 766a b63d
000002d0: 96c8 87bd 07e4 0c3d 649e ac3d 9e0f febd
000002e0: 664c 393e b5f8 93bd b9b0 00bd 6b7e 59bd
000002f0: 60b8 97bd fe9f ab3d ea09 313d 7836 3ebe
00000300: 4642 ccbd aa36 a3bd 3036 cd3d 8a48 6e3d
00000310: 90e3 f1bb e9ee ff3d 0577 00be a613 de3d
00000320: 1d94 cb3d 4145 e3bd 3c09 17be 5d9e ff3d
00000330: e7aa 81bd 18fb 15bd e7b4 7f3b 4b1e 8cbd
00000340: 5209 37be c8e7 81bd a49c da3d 8c1b be3d
00000350: 5ed2 d33c 8e79 4ebc 798d bf3d 3298 cabd
00000360: 0e6d 343e 01e4 bdbd 65f4 09bd 72de e53d
00000370: 1d4b 1fbd 9cf9 003e fd03 153e 9bc6 41be
00000380: f6ed 3e3d 28b9 d6bd 13d6 b3bc f201 d4bd
00000390: 40fd fcbc 59ca 063d a7f1 843d a615 9ebd
000003a0: 6260 9bbd e138 743e 3d81 b43b 701f 09be
000003b0: 1b9d ac3d 2cd4 8dbd 4618 4ebe 4c34 39be
000003c0: 5f1e bcbd 01b0 213d 5dd6 b23d 8630 33be
000003d0: eaf6 a33d 9e73 953c 24fe 1bbe 9c10 37be
000003e0: 8225 ff3d 20b2 84bd e6f8 133e 7c98 003d
000003f0: 1ca2 bc3d 8fe0 2c3e 8d95 cc3d 7236 263e
0.24195743 0.08722055 0.17757839 0.18732327 -0.09550585 -0.0482547 0.15199502 -0.05506562
0.01862184 -0.042616732 0.032283816 0.085874856 0.15940157 -0.10313745 0.21723235 0.08200941
0.05022525 0.07654018 0.22564253 -0.15176225 -0.062250625 -0.14008968 -0.07147539 -0.14349607
0.12132331 -0.06514182 0.14975339 0.158838 0.22100824 -0.020746794 -0.17977114 -0.07560579
-0.06660992 -0.041229535 -0.076248065 0.16318652 -0.05655989 0.24714273 0.15577145 -0.16480832
-0.13051797 0.15108249 0.04011215 -0.06276535 -0.06773358 -0.09917124 -0.07736367 -0.13619126
-0.06226279 -0.06633119 0.07871401 -0.00018691662 0.04342509 -0.11574387 0.053251777 -0.021955939
-0.07892297 -0.12766598 0.10230981 -0.053071514 0.113555446 0.021503078 0.17443457 0.10566178
-0.12953481 -0.1593121 -0.038608383 0.07370957 -0.082176924 -0.03875553 -0.1431612 0.07697489
0.049287878 0.18994911 0.041532844 0.03921288 0.07636744 -0.12907052 0.011739999 -0.008199738
0.16193372 0.15598725 0.19068916 0.042215537 -0.010239392 0.0075236466 0.05180295 -0.078429446
0.13672908 -0.12593648 0.2096623 -0.091856465 -0.20847036 0.029493807 0.0143702505 0.13498648
-0.010913093 -0.14750847 -0.1973759 -0.13500597 0.06338915 -0.015565593 0.059340093 -0.12091977
0.16462499 0.05996034 -0.14768821 -0.14045952 -0.10728131 0.017291369 -0.0098547535 -0.031814765
-0.25615358 0.03855696 0.0067876386 0.1750315 -0.07180943 0.1402595 -0.1738966 -0.09085759
-0.013117526 0.08617931 0.07129984 -0.003596811 -0.16606693 -0.029102491 0.17161202 -0.071646616
-0.17669587 -0.15252677 -0.20126258 0.1110319 0.12640369 0.10275577 0.13242687 -0.0019377646
-0.015226103 -0.045841098 -0.054442547 0.23793884 0.14577381 0.13283859 0.022926353 0.13086265
0.2040428 0.10588761 0.12935348 -0.058639113 0.05126716 0.033434056 0.07878785 -0.11964559
-0.06655217 0.19975728 -0.21696714 0.09975776 -0.12666719 -0.1612518 -0.07077311 -0.078872204
-0.07113258 -0.05010931 -0.13510294 0.046845097 0.08834987 -0.08060289 -0.17745727 0.18777946
-0.03826081 0.046349637 -0.15854903 0.033981547 0.15565075 -0.029636033 0.16643232 -0.16138662
-0.24509132 -0.2149369 0.0015425514 0.089070246 -0.066300556 0.03439715 0.08428648 -0.124053225
0.1809555 -0.072251715 -0.031418536 -0.053099077 -0.074082136 0.083801255 0.043222345 -0.18575466
-0.09973578 -0.07969411 0.10020101 0.058174647 -0.007381864 0.1249674 -0.12545402 0.108435914
0.0994036 -0.110971935 -0.14749616 0.12481377 -0.06331425 -0.036616415 0.0039017738 -0.068417154
-0.17874649 -0.06343037 0.10674408 0.09282598 0.025857147 -0.012602223 0.09353156 -0.0989231
0.17619726 -0.09272004 -0.03368034 0.11224069 -0.038889993 0.12595218 0.14552303 -0.18923418
0.046613656 -0.104845345 -0.021952664 -0.103519335 -0.030882478 0.032907818 0.06491404 -0.07718973
-0.07586743 0.23849823 0.0055085705 -0.13390899 0.08428403 -0.06925234 -0.20126447 -0.18086356
-0.0918548 0.03947449 0.08732293 -0.17498979 0.080060795 0.018243607 -0.15233666 -0.1787743
0.12458326 -0.06479287 0.14450416 0.03139542 0.092106074 0.16882537 0.09989462 0.16231707

convs.1.lin_r.bias f4 [64]
00000000: 2878 c63d 4c42 fb3d 70d0 d3bc 264b b3bd
00000010: b1a9 db3d d181 313d 2bd3 353d dc74 bfbd
00000020: 73e8 b43c 2c60 343d 1403 993d f021 4c3d
00000030: 28e1 5dbd b82f 71bd 3186 debd deff 8fbc
00000040: 434b bd3c 109b 89bd a525 943c e69f 99bc
00000050: 07a6 953d 7b73 43bc 7c6f ed3d a4a9 bc3d
00000060: 84dd b7bc 9423 17bb 52a0 45bd 7ca3 b43d
00000070: d1fe ca3d 3903 72bd 22a5 043c 7d5f edba
00000080: ce02 b73d b68f ae3c cbd0 993d 7ced 3e3e
00000090: d241 37bd 2e88 aa3d f032 d7bd 689a 993d
000000a0: cc38 3d3c 5bab d63d cd4c a33c c783 1f3e
000000b0: c08c bfbb aaca 473c b3da 86bc 585a 773d
000000c0: 5ce6 b8bd 4a6d 893d 776b ff3c 79da 3d3c
000000d0: 3270 0e3e 64ca a3bd 45e9 88bd 4508 903d
000000e0: 820a 8d3b 1cd1 acbd d6e3 e23d a5ba 70bc
000000f0: 8f92 82bd ab5c 75bc 2fcf 32bd e1a0 c13d
0.09690887 0.122685045 -0.025856227 -0.08754568 0.107257254 0.043336693 0.04439084 -0.09348461
0.022083497 0.04403703 0.0747129 0.049837053 -0.054169804 -0.0588834 -0.10865439 -0.017578062
0.023107177 -0.06719029 0.018084357 -0.018753003 0.07307058 -0.011929388 0.115935296 0.09212044
-0.022444494 -0.0023061978 -0.048248596 0.08820245 0.099118836 -0.059085105 0.008096011 -0.0018110123
0.08936082 0.021308761 0.07510527 0.1864528 -0.044740506 0.083267555 -0.105077624 0.07500154
0.011549186 0.10481902 0.019934082 0.15577613 -0.005845636 0.012194315 -0.016461706 0.060388893
-0.090283126 0.06710298 0.031179173 0.0115877325 0.13909987 -0.07997587 -0.06685118 0.07032827
0.004304231 -0.08438322 0.110786125 -0.014692937 -0.0637561 -0.014975707 -0.043654617 0.09454513

convs.2.att f4 [1, 4, 16]
00000000: f591 19bf afaa 0abf 0b33 a7be 0b0d 033f
00000010: 1d75 b43e 3828 febe f804 b13e 5242 5b3e
00000020: fe2d a3be cc29 f3be bf48 17be 57d6 d03e
00000030: 0f31 bbbe 835e 1f3e c603 07bf b98a 80bd
00000040: 20bb dd3e 72ab f3be 265e c3be 176b 0b3f
00000050: 52c1 c2be 89c0 093e 4b24 9a3e da07 5f3e
00000060: 35ca b7be 376f 0f3e 6d39 113f d234 3fbe
00000070: c4ec 673e a8cf 07bf 3cdd 04bf 6bcc e4be
00000080: 1b20 33be 4274 913e 9f43 30be 889c 1dbe
00000090: ea83 233e 0e93 f1be 5491 e2bd aae9 0dbf
000000a0: 0833 8b3e 94bf 933d 8fd0 2dbe 4eac a33e
000000b0: 504b b83e e235 c13e 54e0 073e 49c4 88be
000000c0: bbb6 2ebe 32a2 d4be 373e 523e f0b6 213d
000000d0: 625a 4cbe 6577 c4be d7b1 183e 3e1f 113e
000000e0: eb06 aa3e 0780 e43d 8e4d e4bd 0e27 a9bc
000000f0: 11f7 3ebe f130 033f 579b 80be 5266 a73e
-0.5998834 -0.5416669 -0.3265613 0.51191777 0.352456 -0.4964006 0.34574103 0.21412018
-0.31871027 -0.47492826 -0.14773844 0.40788528 -0.36560866 0.15563397 -0.5274013 -0.06276459
0.43306828 -0.4759174 -0.38157767 0.5446028 -0.38038117 0.13452353 0.30105814 0.21780339
-0.3589646 0.14007269 0.5672825 -0.18672493 0.22648913 -0.53051233 -0.51900077 -0.4468721
-0.17492716 0.2840901 -0.17213295 -0.15391743 0.1596829 -0.47182506 -0.110628754 -0.5543467
0.2718737 0.07214275 -0.1697409 0.31967396 0.3599496 0.37736422 0.13269168 -0.26712254
-0.17061894 -0.41529995 0.20531546 0.039481103 -0.19956353 -0.3837234 0.1491159 0.14172074
0.33208403 0.11157232 -0.11147605 -0.020648506 -0.18648936 0.51246554 -0.25118515 0.32695252

convs.2.bias f4 [64]
00000000: eafb 943b fa93 e9bb 4d21 91bb 7446 463a
00000010: 6274 85b9 b372 09bc 452d 663b 3217 a6b8
00000020: 41e2 9d3b 27cb ae3b 011d e3b9 0af8 d63a
00000030: dd70 4d3c cc04 4d3b ecdc 7739 c7a7 6d3c
00000040: 6b19 723a 4aa8 133b cda5 dc3b cab0 a1ba
00000050: 8b9c 1ab8 a2aa 69ba 45d6 4e3a aa5d 15bb
00000060: d3e6 06bc fc44 71bb a23c 0f39 b5f7 603b
00000070: b578 64ba 72b8 18bb 9f0d b4bc ed66 fb3a
00000080: b5fa 2a39 f231 243a 6b39 0a39 2096 223b
00000090: 78bf 813b befe 83bb 36f3 8a3b 4dca 2bbb
000000a0: ab94 e43a 9449 373b 91a0 c5ba 6e7e e1bb
000000b0: d4c1 45bb e270 013b bb1f a53b aebd acbb
000000c0: 3a4c 8cba 6de9 e93a 42d0 2eb9 2b6b 513b
000000d0: 7a81 ae3b dded 46ba 878d a8ba 8eb4 563a
000000e0: c6ce b6bb 4196 e83b a5dc 37bb 4775 c3ba
000000f0: 934f c0ba 4540 45bb d39d 4cbb 1053 82ba
0.004546632 -0.007128236 -0.0044290186 0.0007563599 -0.0002545445 -0.008389163 0.0035122198 -7.919817e-05
0.0048182313 0.0053342762 -0.00043318424 0.0016400826 0.012539116 0.0031283377 0.00023638055 0.014505333
0.0009235355 0.0022530728 0.006733632 -0.0012336012 -3.6862253e-05 -0.0008913671 0.0007890205 -0.0022791424
-0.008233744 -0.00368148 0.0001366013 0.0034327332 -0.00087154965 -0.0023303297 -0.021979151 0.0019180455
0.00016305859 0.0006263546 0.00013182095 0.002480872 0.0039595924 -0.0040281704 0.004240419 -0.002621311
0.0017439326 0.002796744 -0.001507776 -0.0068815267 -0.0030175345 0.0019751121 0.005039183 -0.005271635
-0.001070387 0.0017846056 -0.00016671515 0.0031954746 0.0053254934 -0.0007588545 -0.0012859561 0.0008190357
-0.0055788485 0.00709799 -0.0028055098 -0.0014912271 -0.0014672152 -0.0030098122 -0.0031222 -0.0009942967
